…
2021-01-18 21:33:50.867882: I tensorflow/stream_executor/cuda/cuda_diagnostics.cc:169] retrieving CUDA diagnostic information for host: DESKTOP-EU9147Q
2021-01-18 21:33:50.868119: I tensorflow/stream_executor/cuda/cuda_diagnostics.cc:176] hostname: DESKTOP-EU9147Q
2021-01-18 21:33:50.868450: I tensorflow/core/platform/cpu_feature_guard.cc:142] Your CPU supports instructions that this TensorFlow binary was not compiled to use: AVX2
Model: "sequential_1"
_________________________________________________________________
Layer (type)                 Output Shape              Param #   
=================================================================
conv2d_1 (Conv2D)            (None, 118, 118, 128)     3584      
_________________________________________________________________
max_pooling2d_1 (MaxPooling2 (None, 59, 59, 128)       0         
_________________________________________________________________
dropout_1 (Dropout)          (None, 59, 59, 128)       0         
_________________________________________________________________
conv2d_2 (Conv2D)            (None, 57, 57, 64)        73792     
_________________________________________________________________
max_pooling2d_2 (MaxPooling2 (None, 28, 28, 64)        0         
_________________________________________________________________
dropout_2 (Dropout)          (None, 28, 28, 64)        0         
_________________________________________________________________
conv2d_3 (Conv2D)            (None, 26, 26, 128)       73856     
_________________________________________________________________
average_pooling2d_1 (Average (None, 13, 13, 128)       0         
_________________________________________________________________
conv2d_4 (Conv2D)            (None, 11, 11, 128)       147584    
_________________________________________________________________
average_pooling2d_2 (Average (None, 5, 5, 128)         0         
_________________________________________________________________
dropout_3 (Dropout)          (None, 5, 5, 128)         0         
_________________________________________________________________
conv2d_5 (Conv2D)            (None, 3, 3, 64)          73792     
_________________________________________________________________
flatten_1 (Flatten)          (None, 576)               0         
_________________________________________________________________
dense_1 (Dense)              (None, 576)               332352    
_________________________________________________________________
dense_2 (Dense)              (None, 156)               90012     
_________________________________________________________________
dropout_4 (Dropout)          (None, 156)               0         
_________________________________________________________________
dense_3 (Dense)              (None, 164)               25748     
_________________________________________________________________
dense_4 (Dense)              (None, 139)               22935     
_________________________________________________________________
dropout_5 (Dropout)          (None, 139)               0         
_________________________________________________________________
dense_5 (Dense)              (None, 133)               18620     
_________________________________________________________________
dropout_6 (Dropout)          (None, 133)               0         
_________________________________________________________________
dense_6 (Dense)              (None, 103)               13802     
_________________________________________________________________
dropout_7 (Dropout)          (None, 103)               0         
_________________________________________________________________
dense_7 (Dense)              (None, 69)                7176      
_________________________________________________________________
dense_8 (Dense)              (None, 3)                 210       
=================================================================
Total params: 883,463
Trainable params: 883,463
Non-trainable params: 0
_________________________________________________________________
Train on 768 samples, validate on 193 samples
Epoch 1/3

 24/768 [..............................] - ETA: 33s - loss: 1.4393 - acc: 0.3889
 48/768 [>.............................] - ETA: 25s - loss: 1.3692 - acc: 0.3542
…
696/768 [==========================>...] - ETA: 2s - loss: 0.4842 - acc: 0.7620
720/768 [===========================>..] - ETA: 1s - loss: 0.4901 - acc: 0.7579
744/768 [============================>.] - ETA: 0s - loss: 0.4902 - acc: 0.7563
768/768 [==============================] - 30s 39ms/step - loss: 0.4879 - acc: 0.7574 - val_loss: 0.4674 - val_acc: 0.7409
Model: "sequential_2"
_________________________________________________________________
Layer (type)                 Output Shape              Param #   
=================================================================
conv2d_6 (Conv2D)            (None, 118, 118, 64)      1792      
_________________________________________________________________
max_pooling2d_3 (MaxPooling2 (None, 59, 59, 64)        0         
_________________________________________________________________
conv2d_7 (Conv2D)            (None, 57, 57, 64)        36928     
_________________________________________________________________
max_pooling2d_4 (MaxPooling2 (None, 28, 28, 64)        0         
_________________________________________________________________
conv2d_8 (Conv2D)            (None, 26, 26, 64)        36928     
_________________________________________________________________
max_pooling2d_5 (MaxPooling2 (None, 13, 13, 64)        0         
_________________________________________________________________
dropout_8 (Dropout)          (None, 13, 13, 64)        0         
_________________________________________________________________
conv2d_9 (Conv2D)            (None, 11, 11, 128)       73856     
_________________________________________________________________
max_pooling2d_6 (MaxPooling2 (None, 5, 5, 128)         0         
_________________________________________________________________
conv2d_10 (Conv2D)           (None, 3, 3, 64)          73792     
_________________________________________________________________
flatten_2 (Flatten)          (None, 576)               0         
_________________________________________________________________
dense_9 (Dense)              (None, 576)               332352    
_________________________________________________________________
dense_10 (Dense)             (None, 88)                50776     
_________________________________________________________________
dense_11 (Dense)             (None, 152)               13528     
_________________________________________________________________
dropout_9 (Dropout)          (None, 152)               0         
_________________________________________________________________
dense_12 (Dense)             (None, 107)               16371     
_________________________________________________________________
dropout_10 (Dropout)         (None, 107)               0         
_________________________________________________________________
dense_13 (Dense)             (None, 182)               19656     
_________________________________________________________________
dropout_11 (Dropout)         (None, 182)               0         
_________________________________________________________________
dense_14 (Dense)             (None, 181)               33123     
_________________________________________________________________
dense_15 (Dense)             (None, 116)               21112     
_________________________________________________________________
dropout_12 (Dropout)         (None, 116)               0         
_________________________________________________________________
dense_16 (Dense)             (None, 192)               22464     
_________________________________________________________________
dense_17 (Dense)             (None, 108)               20844     
_________________________________________________________________
dropout_13 (Dropout)         (None, 108)               0         
_________________________________________________________________
dense_18 (Dense)             (None, 158)               17222     
_________________________________________________________________
dense_19 (Dense)             (None, 59)                9381      
_________________________________________________________________
dense_20 (Dense)             (None, 78)                4680      
_________________________________________________________________
dense_21 (Dense)             (None, 168)               13272     
_________________________________________________________________
dense_22 (Dense)             (None, 187)               31603     
_________________________________________________________________
dense_23 (Dense)             (None, 161)               30268     
_________________________________________________________________
dense_24 (Dense)             (None, 63)                10206     
_________________________________________________________________
dense_25 (Dense)             (None, 172)               11008     
_________________________________________________________________
dense_26 (Dense)             (None, 3)                 519       
=================================================================
Total params: 881,681
Trainable params: 881,681
Non-trainable params: 0
_________________________________________________________________
Train on 768 samples, validate on 193 samples
Epoch 1/3

 24/768 [..............................] - ETA: 38s - loss: 0.5611 - acc: 0.7778
 48/768 [>.............................] - ETA: 26s - loss: 0.5294 - acc: 0.7917
…
696/768 [==========================>...] - ETA: 1s - loss: 0.4184 - acc: 0.7921
720/768 [===========================>..] - ETA: 0s - loss: 0.4158 - acc: 0.7954
744/768 [============================>.] - ETA: 0s - loss: 0.4155 - acc: 0.7957
768/768 [==============================] - 16s 21ms/step - loss: 0.4143 - acc: 0.7969 - val_loss: 0.4684 - val_acc: 0.7409
Model: "sequential_3"
_________________________________________________________________
Layer (type)                 Output Shape              Param #   
=================================================================
conv2d_11 (Conv2D)           (None, 118, 118, 64)      1792      
_________________________________________________________________
average_pooling2d_3 (Average (None, 59, 59, 64)        0         
_________________________________________________________________
dropout_14 (Dropout)         (None, 59, 59, 64)        0         
_________________________________________________________________
conv2d_12 (Conv2D)           (None, 57, 57, 128)       73856     
_________________________________________________________________
max_pooling2d_7 (MaxPooling2 (None, 28, 28, 128)       0         
_________________________________________________________________
conv2d_13 (Conv2D)           (None, 26, 26, 64)        73792     
_________________________________________________________________
average_pooling2d_4 (Average (None, 13, 13, 64)        0         
_________________________________________________________________
conv2d_14 (Conv2D)           (None, 11, 11, 128)       73856     
_________________________________________________________________
max_pooling2d_8 (MaxPooling2 (None, 5, 5, 128)         0         
_________________________________________________________________
conv2d_15 (Conv2D)           (None, 3, 3, 64)          73792     
_________________________________________________________________
flatten_3 (Flatten)          (None, 576)               0         
_________________________________________________________________
dense_27 (Dense)             (None, 576)               332352    
_________________________________________________________________
dense_28 (Dense)             (None, 106)               61162     
_________________________________________________________________
dense_29 (Dense)             (None, 3)                 321       
=================================================================
Total params: 690,923
Trainable params: 690,923
Non-trainable params: 0
_________________________________________________________________
Train on 768 samples, validate on 193 samples
Epoch 1/3

 24/768 [..............................] - ETA: 29s - loss: 0.8551 - acc: 0.1111
 48/768 [>.............................] - ETA: 25s - loss: 0.7437 - acc: 0.3889
…
696/768 [==========================>...] - ETA: 2s - loss: 0.4187 - acc: 0.7960
720/768 [===========================>..] - ETA: 1s - loss: 0.4162 - acc: 0.7991
744/768 [============================>.] - ETA: 0s - loss: 0.4190 - acc: 0.7966
768/768 [==============================] - 23s 30ms/step - loss: 0.4186 - acc: 0.7969 - val_loss: 0.4549 - val_acc: 0.7409
Model: "sequential_4"
_________________________________________________________________
Layer (type)                 Output Shape              Param #   
=================================================================
conv2d_16 (Conv2D)           (None, 118, 118, 128)     3584      
_________________________________________________________________
average_pooling2d_5 (Average (None, 59, 59, 128)       0         
_________________________________________________________________
dropout_15 (Dropout)         (None, 59, 59, 128)       0         
_________________________________________________________________
conv2d_17 (Conv2D)           (None, 57, 57, 64)        73792     
_________________________________________________________________
average_pooling2d_6 (Average (None, 28, 28, 64)        0         
_________________________________________________________________
conv2d_18 (Conv2D)           (None, 26, 26, 128)       73856     
_________________________________________________________________
average_pooling2d_7 (Average (None, 13, 13, 128)       0         
_________________________________________________________________
conv2d_19 (Conv2D)           (None, 11, 11, 128)       147584    
_________________________________________________________________
max_pooling2d_9 (MaxPooling2 (None, 5, 5, 128)         0         
_________________________________________________________________
dropout_16 (Dropout)         (None, 5, 5, 128)         0         
_________________________________________________________________
conv2d_20 (Conv2D)           (None, 3, 3, 64)          73792     
_________________________________________________________________
flatten_4 (Flatten)          (None, 576)               0         
_________________________________________________________________
dense_30 (Dense)             (None, 576)               332352    
_________________________________________________________________
dense_31 (Dense)             (None, 184)               106168    
_________________________________________________________________
dense_32 (Dense)             (None, 3)                 555       
=================================================================
Total params: 811,683
Trainable params: 811,683
Non-trainable params: 0
_________________________________________________________________
Train on 768 samples, validate on 193 samples
Epoch 1/3

 24/768 [..............................] - ETA: 29s - loss: 0.5890 - acc: 0.6667
 48/768 [>.............................] - ETA: 25s - loss: 0.5586 - acc: 0.6667
…
696/768 [==========================>...] - ETA: 2s - loss: 0.4172 - acc: 0.7912
720/768 [===========================>..] - ETA: 1s - loss: 0.4140 - acc: 0.7944
744/768 [============================>.] - ETA: 0s - loss: 0.4107 - acc: 0.7975
768/768 [==============================] - 28s 36ms/step - loss: 0.4117 - acc: 0.7969 - val_loss: 0.4735 - val_acc: 0.7409
Model: "sequential_5"
_________________________________________________________________
Layer (type)                 Output Shape              Param #   
=================================================================
conv2d_21 (Conv2D)           (None, 118, 118, 128)     3584      
_________________________________________________________________
average_pooling2d_8 (Average (None, 59, 59, 128)       0         
_________________________________________________________________
conv2d_22 (Conv2D)           (None, 57, 57, 128)       147584    
_________________________________________________________________
average_pooling2d_9 (Average (None, 28, 28, 128)       0         
_________________________________________________________________
conv2d_23 (Conv2D)           (None, 26, 26, 128)       147584    
_________________________________________________________________
max_pooling2d_10 (MaxPooling (None, 13, 13, 128)       0         
_________________________________________________________________
conv2d_24 (Conv2D)           (None, 11, 11, 64)        73792     
_________________________________________________________________
max_pooling2d_11 (MaxPooling (None, 5, 5, 64)          0         
_________________________________________________________________
conv2d_25 (Conv2D)           (None, 3, 3, 64)          36928     
_________________________________________________________________
flatten_5 (Flatten)          (None, 576)               0         
_________________________________________________________________
dense_33 (Dense)             (None, 576)               332352    
_________________________________________________________________
dense_34 (Dense)             (None, 184)               106168    
_________________________________________________________________
dense_35 (Dense)             (None, 3)                 555       
=================================================================
Total params: 848,547
Trainable params: 848,547
Non-trainable params: 0
_________________________________________________________________
Train on 768 samples, validate on 193 samples
Epoch 1/3

 24/768 [..............................] - ETA: 43s - loss: 0.7785 - acc: 0.6667
 48/768 [>.............................] - ETA: 38s - loss: 0.5890 - acc: 0.7639
…
696/768 [==========================>...] - ETA: 3s - loss: 0.4063 - acc: 0.7850
720/768 [===========================>..] - ETA: 2s - loss: 0.4040 - acc: 0.7866
744/768 [============================>.] - ETA: 1s - loss: 0.4009 - acc: 0.7885
768/768 [==============================] - 43s 56ms/step - loss: 0.3977 - acc: 0.7917 - val_loss: 0.4962 - val_acc: 0.7427
Model: "sequential_6"
_________________________________________________________________
Layer (type)                 Output Shape              Param #   
=================================================================
conv2d_26 (Conv2D)           (None, 118, 118, 128)     3584      
_________________________________________________________________
max_pooling2d_12 (MaxPooling (None, 59, 59, 128)       0         
_________________________________________________________________
dropout_17 (Dropout)         (None, 59, 59, 128)       0         
_________________________________________________________________
conv2d_27 (Conv2D)           (None, 57, 57, 128)       147584    
_________________________________________________________________
max_pooling2d_13 (MaxPooling (None, 28, 28, 128)       0         
_________________________________________________________________
conv2d_28 (Conv2D)           (None, 26, 26, 128)       147584    
_________________________________________________________________
average_pooling2d_10 (Averag (None, 13, 13, 128)       0         
_________________________________________________________________
conv2d_29 (Conv2D)           (None, 11, 11, 64)        73792     
_________________________________________________________________
average_pooling2d_11 (Averag (None, 5, 5, 64)          0         
_________________________________________________________________
conv2d_30 (Conv2D)           (None, 3, 3, 64)          36928     
_________________________________________________________________
flatten_6 (Flatten)          (None, 576)               0         
_________________________________________________________________
dense_36 (Dense)             (None, 576)               332352    
_________________________________________________________________
dense_37 (Dense)             (None, 114)               65778     
_________________________________________________________________
dense_38 (Dense)             (None, 3)                 345       
=================================================================
Total params: 807,947
Trainable params: 807,947
Non-trainable params: 0
_________________________________________________________________
Train on 768 samples, validate on 193 samples
Epoch 1/3

 24/768 [..............................] - ETA: 41s - loss: 0.5936 - acc: 0.6667
 48/768 [>.............................] - ETA: 39s - loss: 0.5029 - acc: 0.7500
…
696/768 [==========================>...] - ETA: 3s - loss: 0.4019 - acc: 0.8027
720/768 [===========================>..] - ETA: 2s - loss: 0.3990 - acc: 0.8056
744/768 [============================>.] - ETA: 1s - loss: 0.4036 - acc: 0.8029
768/768 [==============================] - 46s 59ms/step - loss: 0.4034 - acc: 0.8021 - val_loss: 0.4228 - val_acc: 0.7409
Model: "sequential_7"
_________________________________________________________________
Layer (type)                 Output Shape              Param #   
=================================================================
conv2d_31 (Conv2D)           (None, 118, 118, 128)     3584      
_________________________________________________________________
max_pooling2d_14 (MaxPooling (None, 59, 59, 128)       0         
_________________________________________________________________
conv2d_32 (Conv2D)           (None, 57, 57, 128)       147584    
_________________________________________________________________
max_pooling2d_15 (MaxPooling (None, 28, 28, 128)       0         
_________________________________________________________________
dropout_18 (Dropout)         (None, 28, 28, 128)       0         
_________________________________________________________________
conv2d_33 (Conv2D)           (None, 26, 26, 64)        73792     
_________________________________________________________________
max_pooling2d_16 (MaxPooling (None, 13, 13, 64)        0         
_________________________________________________________________
dropout_19 (Dropout)         (None, 13, 13, 64)        0         
_________________________________________________________________
conv2d_34 (Conv2D)           (None, 11, 11, 64)        36928     
_________________________________________________________________
average_pooling2d_12 (Averag (None, 5, 5, 64)          0         
_________________________________________________________________
conv2d_35 (Conv2D)           (None, 3, 3, 64)          36928     
_________________________________________________________________
flatten_7 (Flatten)          (None, 576)               0         
_________________________________________________________________
dense_39 (Dense)             (None, 576)               332352    
_________________________________________________________________
dense_40 (Dense)             (None, 161)               92897     
_________________________________________________________________
dense_41 (Dense)             (None, 3)                 486       
=================================================================
Total params: 724,551
Trainable params: 724,551
Non-trainable params: 0
_________________________________________________________________
Train on 768 samples, validate on 193 samples
Epoch 1/3

 24/768 [..............................] - ETA: 29s - loss: 0.6927 - acc: 0.6667
 48/768 [>.............................] - ETA: 28s - loss: 0.6903 - acc: 0.6667
…
696/768 [==========================>...] - ETA: 2s - loss: 0.6487 - acc: 0.7941
720/768 [===========================>..] - ETA: 1s - loss: 0.6487 - acc: 0.7935
744/768 [============================>.] - ETA: 0s - loss: 0.6492 - acc: 0.7894
768/768 [==============================] - 31s 41ms/step - loss: 0.6488 - acc: 0.7925 - val_loss: 0.6540 - val_acc: 0.7409
Model: "sequential_8"
_________________________________________________________________
Layer (type)                 Output Shape              Param #   
=================================================================
conv2d_36 (Conv2D)           (None, 118, 118, 64)      1792      
_________________________________________________________________
average_pooling2d_13 (Averag (None, 59, 59, 64)        0         
_________________________________________________________________
conv2d_37 (Conv2D)           (None, 57, 57, 64)        36928     
_________________________________________________________________
average_pooling2d_14 (Averag (None, 28, 28, 64)        0         
_________________________________________________________________
conv2d_38 (Conv2D)           (None, 26, 26, 128)       73856     
_________________________________________________________________
average_pooling2d_15 (Averag (None, 13, 13, 128)       0         
_________________________________________________________________
dropout_20 (Dropout)         (None, 13, 13, 128)       0         
_________________________________________________________________
conv2d_39 (Conv2D)           (None, 11, 11, 128)       147584    
_________________________________________________________________
max_pooling2d_17 (MaxPooling (None, 5, 5, 128)         0         
_________________________________________________________________
dropout_21 (Dropout)         (None, 5, 5, 128)         0         
_________________________________________________________________
conv2d_40 (Conv2D)           (None, 3, 3, 64)          73792     
_________________________________________________________________
flatten_8 (Flatten)          (None, 576)               0         
_________________________________________________________________
dense_42 (Dense)             (None, 576)               332352    
_________________________________________________________________
dense_43 (Dense)             (None, 125)               72125     
_________________________________________________________________
dense_44 (Dense)             (None, 3)                 378       
=================================================================
Total params: 738,807
Trainable params: 738,807
Non-trainable params: 0
_________________________________________________________________
Train on 768 samples, validate on 193 samples
Epoch 1/3

 24/768 [..............................] - ETA: 17s - loss: 0.6879 - acc: 0.6667
 48/768 [>.............................] - ETA: 13s - loss: 0.6850 - acc: 0.6667
…
696/768 [==========================>...] - ETA: 1s - loss: 0.4640 - acc: 0.7902
720/768 [===========================>..] - ETA: 0s - loss: 0.4638 - acc: 0.7898
744/768 [============================>.] - ETA: 0s - loss: 0.4592 - acc: 0.7957
768/768 [==============================] - 13s 17ms/step - loss: 0.4579 - acc: 0.7969 - val_loss: 0.4841 - val_acc: 0.7409
Model: "sequential_9"
_________________________________________________________________
Layer (type)                 Output Shape              Param #   
=================================================================
conv2d_41 (Conv2D)           (None, 118, 118, 128)     3584      
_________________________________________________________________
max_pooling2d_18 (MaxPooling (None, 59, 59, 128)       0         
_________________________________________________________________
dropout_22 (Dropout)         (None, 59, 59, 128)       0         
_________________________________________________________________
conv2d_42 (Conv2D)           (None, 57, 57, 128)       147584    
_________________________________________________________________
max_pooling2d_19 (MaxPooling (None, 28, 28, 128)       0         
_________________________________________________________________
dropout_23 (Dropout)         (None, 28, 28, 128)       0         
_________________________________________________________________
conv2d_43 (Conv2D)           (None, 26, 26, 128)       147584    
_________________________________________________________________
max_pooling2d_20 (MaxPooling (None, 13, 13, 128)       0         
_________________________________________________________________
dropout_24 (Dropout)         (None, 13, 13, 128)       0         
_________________________________________________________________
conv2d_44 (Conv2D)           (None, 11, 11, 128)       147584    
_________________________________________________________________
average_pooling2d_16 (Averag (None, 5, 5, 128)         0         
_________________________________________________________________
conv2d_45 (Conv2D)           (None, 3, 3, 64)          73792     
_________________________________________________________________
flatten_9 (Flatten)          (None, 576)               0         
_________________________________________________________________
dense_45 (Dense)             (None, 576)               332352    
_________________________________________________________________
dense_46 (Dense)             (None, 121)               69817     
_________________________________________________________________
dropout_25 (Dropout)         (None, 121)               0         
_________________________________________________________________
dense_47 (Dense)             (None, 131)               15982     
_________________________________________________________________
dense_48 (Dense)             (None, 167)               22044     
_________________________________________________________________
dense_49 (Dense)             (None, 3)                 504       
=================================================================
Total params: 960,827
Trainable params: 960,827
Non-trainable params: 0
_________________________________________________________________
Train on 768 samples, validate on 193 samples
Epoch 1/3

 24/768 [..............................] - ETA: 39s - loss: 0.6984 - acc: 0.6528
 48/768 [>.............................] - ETA: 35s - loss: 0.6444 - acc: 0.6806
…
696/768 [==========================>...] - ETA: 2s - loss: 0.4050 - acc: 0.7974
720/768 [===========================>..] - ETA: 1s - loss: 0.4036 - acc: 0.7986
744/768 [============================>.] - ETA: 0s - loss: 0.4043 - acc: 0.7953
768/768 [==============================] - 34s 44ms/step - loss: 0.4037 - acc: 0.7973 - val_loss: 0.4299 - val_acc: 0.7409
Model: "sequential_10"
_________________________________________________________________
Layer (type)                 Output Shape              Param #   
=================================================================
conv2d_46 (Conv2D)           (None, 118, 118, 128)     3584      
_________________________________________________________________
average_pooling2d_17 (Averag (None, 59, 59, 128)       0         
_________________________________________________________________
dropout_26 (Dropout)         (None, 59, 59, 128)       0         
_________________________________________________________________
conv2d_47 (Conv2D)           (None, 57, 57, 128)       147584    
_________________________________________________________________
average_pooling2d_18 (Averag (None, 28, 28, 128)       0         
_________________________________________________________________
conv2d_48 (Conv2D)           (None, 26, 26, 128)       147584    
_________________________________________________________________
max_pooling2d_21 (MaxPooling (None, 13, 13, 128)       0         
_________________________________________________________________
dropout_27 (Dropout)         (None, 13, 13, 128)       0         
_________________________________________________________________
conv2d_49 (Conv2D)           (None, 11, 11, 64)        73792     
_________________________________________________________________
max_pooling2d_22 (MaxPooling (None, 5, 5, 64)          0         
_________________________________________________________________
dropout_28 (Dropout)         (None, 5, 5, 64)          0         
_________________________________________________________________
conv2d_50 (Conv2D)           (None, 3, 3, 128)         73856     
_________________________________________________________________
flatten_10 (Flatten)         (None, 1152)              0         
_________________________________________________________________
dense_50 (Dense)             (None, 1152)              1328256   
_________________________________________________________________
dense_51 (Dense)             (None, 124)               142972    
_________________________________________________________________
dense_52 (Dense)             (None, 3)                 375       
=================================================================
Total params: 1,918,003
Trainable params: 1,918,003
Non-trainable params: 0
_________________________________________________________________
Train on 768 samples, validate on 193 samples
Epoch 1/3

 24/768 [..............................] - ETA: 42s - loss: 0.8256 - acc: 0.4583
 48/768 [>.............................] - ETA: 38s - loss: 0.6659 - acc: 0.5903
…
